model_klakson_mini.tflite (tflite, 95760 bytes, 5 tensors)

arith.constant f4 [1, 32]
000000 71 46 c2 3e 77 9d aa be 5c ab 18 be 1e 7f 9b be
       0.37944368 -0.3332326 -0.14909118 -0.3037042
000010 72 f3 fb 3d 18 ef b1 be a2 29 7d 3d fa 0f f9 3d
       0.12302293 -0.34752727 0.061807282 0.121612504
000020 48 8b bb be 2d 7f 27 be 1f 1b 7a 3e e5 a6 bc bd
       -0.366297 -0.16357107 0.24424408 -0.0921152
000030 f7 4d 7b 3e 7c 6b 60 be 4c 24 ce 3e 4c 58 40 3e
       0.2454146 -0.21916002 0.40262067 0.18783683
000040 a1 e9 c2 be 8b ce 2b 3e 8f 6c 89 3e e2 e8 68 be
       -0.3806887 0.16778009 0.26840636 -0.22745088
000050 57 de 1c bd c2 88 d1 bd 4d d7 cc 3e c3 1e 13 be
       -0.038297977 -0.102311626 0.4000801 -0.14367203
000060 33 a3 a4 be a8 92 9b 3e b6 a4 21 3d 55 c5 be 3e
       -0.3215576 0.30385327 0.03946372 0.37259927
000070 f5 93 86 be 12 d0 c5 3e 39 92 e8 3c bf 64 b0 be
       -0.26284757 0.38635308 0.028390037 -0.34451863

arith.constant1 f4 [32, 720]
000000 3e 68 f0 bb 8c bb 2e 3d a7 08 6d 3c ff 0c 70 3d
       -0.0073366454 0.042659327 0.014467395 0.058606144
000010 05 c8 9b 3d dc 62 98 bd ac 41 d3 3c e9 e2 fe 3c
       0.0760651 -0.07440731 0.02578815 0.031114059
000020 f4 49 06 bd 50 44 02 bd e4 ef 1f bd 46 02 79 bd
       -0.03278537 -0.03180343 -0.039047137 -0.060793184
000030 77 58 db bc 73 20 b2 bd be 6d 57 3d 91 78 87 bd
       -0.026775582 -0.086975954 0.052594893 -0.06614793
000040 3b c2 9a bc 63 27 4c 3d 80 f9 8d bd de b6 69 bd
       -0.018891444 0.04984225 -0.06932354 -0.05705916
000050 5f 2d 53 bb 6b 45 8e bc 42 6f 65 3d 4a 33 65 3d
       -0.0032223088 -0.017367085 0.056014307 0.055957116
000060 0a 72 00 3d 1a d5 6d 3c 65 f2 a6 3c bf 23 37 3c
       0.031358756 0.014516139 0.020379255 0.011177956
000070 36 2d e9 bb 29 f6 dd 3c a7 0a bc bc 36 8d 99 3d
       -0.0071159853 0.027094917 -0.022954298 0.07497637
000080 90 f0 4b bc 97 94 2f bc 72 04 4a bd 1b 4e 4f 3d
       -0.012447491 -0.010716579 -0.049320646 0.050611597
000090 fd c8 e2 bc 77 26 af 3c 54 7b 3b bb 7e 40 53 3d
       -0.02768373 0.021380646 -0.0028607445 0.051575176
0000a0 7b d5 11 bd 74 e5 73 bd 43 f6 f2 3c 3b 67 b7 bc
       -0.03560398 -0.059544995 0.029658442 -0.022388091
0000b0 40 58 82 3d f7 e1 81 3c 38 0e ca bc d9 f5 2b 3d
       0.063644886 0.015854819 -0.024664983 0.041982505
0000c0 6b da 9a 3d fa 71 1e 3d ab c6 19 3d bb ff 89 bd
       0.07561191 0.038682915 0.03754298 -0.0673823
0000d0 a5 14 49 3d 0f 08 8c b9 3c ee 89 3d bc ae 00 bd
       0.049091954 -0.00026708885 0.06734893 -0.03141664
0000e0 29 4f a7 bd f0 75 a7 3d e1 f4 0d bd 70 5f e8 3b
       -0.081693955 0.08176792 -0.034657363 0.007091455
0000f0 fe e9 34 3d f7 06 11 3d 5f 24 e1 3c f1 12 b2 3b
       0.044168465 0.035407033 0.027483163 0.005434387
000100 14 15 84 3c 17 39 f5 bc 89 bf 39 bd a9 0e a8 3a
       0.016123332 -0.02993445 -0.045348678 0.0012821752
000110 12 eb 9e bd 90 c3 d1 3c bb 4b 00 bd b9 a5 b4 3c
       -0.0775968 0.025605947 -0.031322222 0.022051679
000120 97 8f 43 3c df 1e 96 3b a8 d8 4d 3b 50 5d fb 3c
       0.01193609 0.004581317 0.0031409655 0.030684143
000130 f2 91 05 bd 77 fe 5c bb 97 14 27 3d 58 a3 97 bd
       -0.032609887 -0.0033721009 0.04079112 -0.07404202
000140 62 ea 7c bd fa 52 62 3d fe 2c 01 bd d0 fd aa bb
       -0.061746962 0.055254914 -0.03153705 -0.005218245
000150 74 cb b4 bd ce a4 59 3d eb b0 09 bc 41 d6 10 bc
       -0.08827868 0.053135686 -0.008403997 -0.008840145
000160 4d 11 a5 bd 93 14 7c 3d a5 e7 7e bd a7 e6 b7 bd
       -0.080599405 0.06154306 -0.062232632 -0.0897954
000170 74 e1 98 bd 2c e7 b9 bd e5 90 03 bd 96 5e b8 3c
       -0.07464877 -0.09077296 -0.032120604 0.02250604
000180 3f f1 b2 3d 24 9a 88 3d b4 df db bc 0b 41 e9 3c
       0.0873742 0.06670025 -0.026840068 0.028473398
000190 18 34 5e bc 8a c7 4d 3d f3 24 d3 3c f6 b7 a4 bd
       -0.013562225 0.050239123 0.025774455 -0.080429
0001a0 49 c1 43 bd c0 b5 15 bd b9 0c b0 3d ec b9 2f bd
       -0.047791753 -0.036550283 0.08596177 -0.04290192
0001b0 15 26 5e bd b7 22 a4 bd 5d db a1 bd 5f ba a3 bc
       -0.054235537 -0.08014434 -0.07903168 -0.01998633
0001c0 13 08 50 3d 07 6d 21 bc ae 2c f2 bc 68 50 7d 3d
       0.05078895 -0.009852654 -0.02956232 0.06184426
0001d0 96 50 b1 bd da 0e 99 bd 4e 52 8e bc f5 ee f3 bc
       -0.08657949 -0.07473536 -0.01737323 -0.02977703
0001e0 1f f1 79 3d c3 a2 d1 bc 03 cd 40 3c f2 38 73 bd
       0.061020967 -0.025590306 0.011767629 -0.05938048
0001f0 e6 b2 34 3b b2 bb 48 bd 6c 36 3d bc a8 72 3d bc
       0.0027572452 -0.049007125 -0.01154862 -0.011562981
000200 85 e8 69 3d b3 39 6e 3c 98 fb e9 3c 08 b4 1f 3d
       0.057106514 0.014540124 0.028562352 0.03899005
000210 bc 29 37 bd ec 31 fb 3c 8a 7f f9 bc a1 bf 7b 3d
       -0.044717535 0.030663453 -0.030456323 0.06146205
000220 18 c9 b6 bd 85 09 23 bd 6f ba 29 3d 9b f2 ab 3c
       -0.08925074 -0.039804 0.041437563 0.020989707
000230 e3 03 86 bc 4d 11 8f bd 45 79 95 bd f5 59 8a 3d
       -0.016359275 -0.06985722 -0.07298521 0.06755439
000240 6e 6b 0e 3d 22 a7 a1 bd ee 12 a7 3d be fd b4 3c
       0.03477042 -0.07893206 0.081579074 0.02209365
000250 e5 62 91 bc 4f d8 ad bd 1e 04 86 bd fd 6f bb bd
       -0.017747352 -0.08488523 -0.06543754 -0.091522194
000260 4a fb ab 3d 1c d8 b4 bd 89 35 8a bd 2c d7 73 3c
       0.08397539 -0.08830282 -0.06748492 0.014882844
000270 e3 11 4e 3d da f9 5e 3d 03 23 dd bc f7 f1 91 bd
       0.050310027 0.054437496 -0.026994234 -0.07126229
000280 a7 4a be bd 37 b4 18 bd c1 f5 d5 bb c0 0c 7c bd
       -0.092915826 -0.03728124 -0.0065295403 -0.061535597
000290 b5 bc 91 bc 3f 1e a4 bd 3e 1b d4 bc 6a 79 05 3d
       -0.017790178 -0.080135815 -0.025891896 0.032586493
0002a0 ef 1f a1 3d 32 46 11 3d 73 a7 92 3a 63 8c e7 bc
       0.07867419 0.035467334 0.001118882 -0.028265184
0002b0 5e d8 27 3d a0 76 96 3c 16 5f 02 bd 73 8f 84 3d
       0.04097783 0.018367112 -0.031828962 0.06472673
0002c0 aa ce 66 3c 16 48 a7 3c 6f c6 0d 3c 8d 6a e4 3c
       0.0140873585 0.020420115 0.008653267 0.027882839
0002d0 d6 31 30 3d ab b5 f7 3c eb ef 21 3d d0 f9 27 bc
       0.043016277 0.030237993 0.039535444 -0.010252431
0002e0 cc 3f bb 3c 97 bf 93 3d 80 4d 26 3d 44 df a4 3d
       0.02285757 0.07214277 0.040601254 0.08050397
0002f0 43 94 2f bd 1c 00 d9 3c cd cd ba bc 8d 0f 0a bd
       -0.042866003 0.02648931 -0.022803212 -0.033706237
000300 02 3a bb bd 0e 31 a1 bd 20 42 9b bd 0a f0 8f bd
       -0.091419235 -0.078706846 -0.07580972 -0.07028206
000310 aa 2d 8a 3d e6 e8 22 3c 26 45 ba 3c 3d 1b 8f bd
       0.06746991 0.009943223 0.02273805 -0.06987617
000320 e0 92 8d 3d c4 4d 2f 3d 9f 6a 19 3d cf 79 8b bc
       0.0691278 0.042798772 0.037455197 -0.017025856
000330 08 53 2a 3d 92 fa bc bb cb 0a bb bd d9 61 aa 3d
       0.04158309 -0.005767175 -0.09132918 0.08319444
000340 a0 db 07 3d 00 b2 8b 3b b4 b5 2c 3c 1d 7c 4d 3d
       0.033168435 0.0042631626 0.010541368 0.05016719
000350 a1 89 1a 3d e3 e1 de bc ae 0a af bc c2 bf 95 bc
       0.03772891 -0.02720732 -0.021367397 -0.018279914
000360 91 bb d7 3c d3 68 de 39 56 ce 9e bc d1 99 35 3d
       0.026334556 0.0004242124 -0.019385498 0.044336144
000370 15 3a b0 3c a8 0e 8d bd 76 86 8e bd b4 1d 2c 3d
       0.02151207 -0.06887561 -0.0695924 0.042020515
000380 82 d9 41 bc cf 2e 8c bd ae 33 98 bd 03 8f a6 bd
       -0.011831643 -0.068448655 -0.07431732 -0.08132746
000390 2c c2 b4 bc 64 6a 7a bc 7c af 1d bd 4f e9 b3 bd
       -0.022065245 -0.015284155 -0.038497433 -0.087847345
0003a0 ab 96 a0 3d fc e0 b2 bc 5c d3 0a 3d b8 2f 03 3c
       0.07841238 -0.021835797 0.033892974 0.0080069825
0003b0 28 2a 2f 3d f1 97 58 3d 96 22 2c 3d 0d 35 31 3d
       0.042764813 0.052879278 0.04202517 0.043263484
0003c0 10 38 55 3c 8b 08 93 3d d1 80 8b bd 32 0c 59 bd
       0.013013855 0.07179364 -0.06811679 -0.052990146
0003d0 ce 75 85 bc ab 78 89 bc c1 82 3b bd 24 7b 60 bd
       -0.016291525 -0.016781172 -0.045778994 -0.054804936
0003e0 df a5 b1 bd 96 09 1d bc 62 29 42 3c f0 4c c3 bc
       -0.086742155 -0.009584805 0.011850687 -0.023840398
0003f0 eb 25 54 3d 60 2d b9 3c 87 dc 5d bd f7 48 94 bc
       0.051793974 0.022604644 -0.05416539 -0.018101199

arith.constant2 f4 [32]
000000 bf b1 a4 ba 5c b3 c4 bb 19 0d c0 bb e0 15 aa 3a
       -0.001256518 -0.0060028266 -0.0058609364 0.001297649
000010 23 ac c5 bb 3b 50 01 bc 96 f1 f8 bb 5f 85 ff ba
       -0.006032483 -0.007892664 -0.0075971587 -0.0019494704
000020 25 21 88 bb 8e 21 51 3b f1 99 70 39 b3 b5 c4 bb
       -0.0041543418 0.003191087 0.00022945531 -0.0060031055
000030 c4 cb 21 3b 1e 58 e4 bb f1 67 0d bc 6d 61 26 bc
       0.0024688104 -0.006968512 -0.008630739 -0.010155064
000040 9c 15 f0 bb f7 e2 a0 bb 74 aa 88 bc df 46 a7 bb
       -0.007326795 -0.004909869 -0.01668284 -0.005104884
000050 28 24 c0 bb ed 9f 1b 3c a8 35 bb 3b a0 89 dd 39
       -0.005863685 0.0094985785 0.0057131834 0.00042254943
000060 15 47 0a 3b 7d c5 c4 bb 27 cb 28 bc 1f 03 cb bb
       0.0021099497 -0.0060049878 -0.010302342 -0.0061954404
000070 21 a6 82 3b 88 fb 04 bc 07 d5 00 bb a3 9f 56 bb
       0.0039870893 -0.00811661 -0.0019658224 -0.003274896

sequential_1/conv2d_1/convolution f4 [16, 3, 3, 1]
000000 9c 0d ba 3d 62 a3 1f 3c 2f c1 c6 39 1e 1d 3a 3e
       0.09084627 0.009743543 0.00037909436 0.1817517
000010 8e 1e 90 bd 56 65 d8 bc 99 33 10 be 24 bf 87 bd
       -0.07037078 -0.026415508 -0.14082183 -0.06628254
000020 b8 b5 c6 bd 22 87 d2 3d 70 95 c2 3d 71 3b 4c be
       -0.09702629 0.10279681 0.09501159 -0.1994455
000030 51 5d bd bd a6 f0 af 3d 54 c4 11 be 79 77 32 3e
       -0.09246314 0.08590822 -0.1423505 0.17428388
000040 fa a1 3a 3e 68 ed ca 3d 1e 2f 0a 3e 24 7a c6 3c
       0.18225852 0.09908563 0.13494536 0.024228163
000050 20 02 00 be 8f 3c 06 3e fc bc 14 3e 31 d6 38 be
       -0.1250081 0.13109039 0.14525217 -0.18050458
000060 81 c7 2f bc a2 70 9c bc c9 b9 3a be 47 4f a4 bd
       -0.010728718 -0.019096676 -0.18234934 -0.080229335
000070 32 cd 22 3e 21 de 02 3d a8 16 50 3e 65 33 4d 3e
       0.15898588 0.03195012 0.20321143 0.20039137
000080 75 94 a2 bb d4 22 32 bd 27 a3 05 3e 10 36 84 3d
       -0.004961545 -0.043490246 0.13050519 0.06455624
000090 c0 6b f9 3d ca af 15 3e f0 a9 1e 3e 1b e0 60 3d
       0.12178755 0.1461784 0.15494514 0.054901224
0000a0 69 b6 bb bd 69 f5 88 bd 37 2d 0e be d3 3b df bd
       -0.09165651 -0.06687433 -0.13884436 -0.109000824
0000b0 e5 83 2d be 7b b5 2b be c0 72 8b 3d 3f 01 27 be
       -0.16944845 -0.16768448 0.06808996 -0.16309069
0000c0 4c 53 52 be 72 68 80 3c 8f 8f 40 3d 68 66 f4 3c
       -0.20539588 0.015674803 0.04701191 0.029833987
0000d0 99 c3 e1 bd 21 4c 17 3e 31 f4 31 3e 04 ca f3 bd
       -0.110236354 0.14775135 0.17378308 -0.11903766
0000e0 32 57 1c 3e b7 a2 26 3c a6 0b 25 be 07 a8 32 bd
       0.15267637 0.01017063 -0.16117725 -0.043617275
0000f0 c8 bf fa bb 21 09 27 3d 7f 91 11 be 7b a2 25 3e
       -0.0076522566 0.04078019 -0.14215659 0.16175263
000100 f9 91 5c 3c f6 27 c3 bd 05 e1 cd 3c a9 ac 00 3d
       0.013462537 -0.09529106 0.025131712 0.03141466
000110 39 1d 52 3d 0e a7 3f 3d e9 f6 19 be 20 28 fa bd
       0.0512974 0.046790175 -0.15035595 -0.122146845
000120 40 a3 11 be 21 a7 b5 3d a5 c6 27 3e 3d be 9b 3d
       -0.14222431 0.08869768 0.1638437 0.076046444
000130 9b e9 d8 3d 07 e0 b5 3d 51 54 a2 3d ad cf 19 3e
       0.10591432 0.088806204 0.07926238 0.15020628
000140 38 13 d3 bd 35 d9 0d be 60 8c 45 3d c6 88 91 bd
       -0.103064 -0.13852389 0.048229575 -0.071061656
000150 ef bb 90 bd 0c f7 5b be 50 8a 10 3e 58 66 b1 3d
       -0.070670955 -0.2148096 0.14115262 0.08662099
000160 eb 91 e0 3d 6e 55 a5 3d 08 b4 c8 bd 20 3e ee 3b
       0.10965332 0.08072935 -0.09799963 0.0072705895
000170 9a db 0f 3e 37 2d 39 bd 39 b2 19 3e 0e 6d f5 3d
       0.14048615 -0.045209136 0.15009393 0.11983691
000180 a5 c8 c6 3d 50 88 c7 bd 6b d5 74 3d 63 56 43 3e
       0.09706239 -0.097427964 0.059773844 0.19075923
000190 62 18 cb bd 03 1f 27 be e3 22 18 3c 4c 12 f3 bd
       -0.0991676 -0.16320424 0.009285661 -0.11868724
0001a0 03 7a 37 bd 34 5d f3 3c 77 35 cd bc bb 71 2b be
       -0.044794094 0.029707529 -0.025049908 -0.16742603
0001b0 f9 1e 96 3d 01 c6 10 be 32 47 e9 3d 3e fb f4 3d
       0.07330126 -0.14138032 0.113905326 0.11961983
0001c0 f4 84 aa 3d 38 78 20 3d 1a e0 43 be 54 a8 b2 bd
       0.0832614 0.03917715 -0.19128457 -0.08723512
0001d0 67 6b 15 be 39 df ee bd 67 55 f4 bd 93 9e 1a 3e
       -0.14591752 -0.1166367 -0.11930352 0.15099554
0001e0 33 5a ca 3d d2 be a2 bd 78 c0 d6 3d 23 ce d6 bc
       0.098804854 -0.07946552 0.10485929 -0.02622134
0001f0 0b b1 13 be 0b bc 54 3d c4 a9 3d 3e 98 3e a0 bd
       -0.14423005 0.051937144 0.18521792 -0.07824439
000200 98 ea 94 3d 84 cb 5c bc f7 b6 09 3e 61 a2 a9 bd
       0.07271308 -0.013476256 0.13448702 -0.082829244
000210 c6 7b 17 3e 2b 94 1c bd 47 1b e9 3d 21 e6 36 3e
       0.1479331 -0.03822724 0.11382156 0.17861225
000220 62 ff a8 bd 76 f3 78 bc 33 bb 4a be 55 94 b3 3c
       -0.082518354 -0.015194764 -0.19797973 0.021921316
000230 04 ac 43 3d 10 61 11 3d f6 ad cf bd eb 13 40 be
       0.04777147 0.035492957 -0.10140602 -0.18757598

sequential_1/conv2d_1/Relu;sequential_1/conv2d_1/BiasAdd;sequential_1/conv2d_1/convolution; f4 [16]
000000 ab e9 91 bc d6 18 ce ba 63 96 9b bc 2c 06 33 bd
       -0.017811617 -0.0015723954 -0.018992608 -0.043707058
000010 25 c7 27 bd 8a 0f 17 3b 32 b5 0c bd 1d 8e eb bc
       -0.040961403 0.0023050033 -0.03435249 -0.028754288
000020 67 b6 17 bd 8b 4f 13 bd 01 d8 2a bd a1 93 84 bd
       -0.037039187 -0.03596453 -0.041709904 -0.064734705
000030 a2 6e 4e 3a 62 59 51 bb 73 e5 55 bc fe 5c 96 bc
       0.0007874762 -0.0031944145 -0.013055193 -0.018354889
